src/sim_autoencoder.pth (torch_old, 5836 bytes, 8 tensors)

encoder.0.weight f4 [20, 21]
0	0xb5ed5a43	-1.7684146e-06
1	0xbdccb18c	-0.09994802
2	0xb9c3fbc3	-0.00037380875
3	0xbccc4b09	-0.024938123
4	0xbd064247	-0.03277805
5	0xbe1aaec2	-0.15105727
6	0xbd65876a	-0.056037344
7	0xbd8f14f0	-0.069864154
8	0x3ce811ac	0.02832874
9	0xbe1bd388	-0.15217412
10	0xbe332bfc	-0.17497247
11	0xbe0704db	-0.13185446
12	0x3ea66f79	0.32506922
13	0xbc4a1ca9	-0.012335935
14	0xbe6f5186	-0.23370942
15	0x3d964de2	0.07339074
16	0xbe803227	-0.25038263
17	0xbde313ac	-0.110877365
18	0xbe1fd2e9	-0.156078
19	0xbd6aad23	-0.057294022
20	0x39e8c2d6	0.00044395652
21	0x3de7ae40	0.113125324
22	0x3d942724	0.07234028
23	0x3da58349	0.08081681
24	0x3e86f7d0	0.2636094
25	0x3e86b0fc	0.26306903
26	0xbe9f3da5	-0.3110172
27	0xbe970ff2	-0.29504353
28	0xbd66ec2c	-0.056377575
29	0x3dc615a2	0.09672095
30	0xbd917c84	-0.071038276
31	0x3e124800	0.14285278
32	0x3e8561cf	0.26051185
33	0x3e63e457	0.22255073
34	0x3e2c8670	0.16848159
35	0xbe3390a8	-0.1753565
36	0x3e61f3ee	0.22065708
37	0x3e06eec6	0.13177022
38	0xbe64fd7d	-0.22362323
39	0x3e0c0441	0.13673498
40	0x3e9616c1	0.29314235
41	0x3e505017	0.20343052
42	0xbc9c5fe1	-0.019088687
43	0x3da795a8	0.081828415
44	0x3ed816ed	0.4220499
45	0x3e3db10a	0.18524566
46	0xbe94fb55	-0.29098
47	0x3db2cf74	0.08730975
48	0x3e493c6f	0.1965196
49	0xbe7f9606	-0.24959573
50	0xbcb443ae	-0.022004928
51	0xbeb94dd4	-0.3619219
52	0xbe5d6485	-0.21620376
53	0xbf3126da	-0.6919991
54	0x3edd071b	0.43169484
55	0x3e0ce850	0.13760495
56	0x3f2fc521	0.6866017
57	0xbea0fd1b	-0.31443104
58	0xbd96949c	-0.07352564
59	0x3e30d02d	0.17266913
60	0x3e80a98c	0.25129354
61	0x3e83a5f4	0.2571255
62	0x3e192f81	0.14959528
63	0x018e5000	5.2277356e-38
64	0x9d02121e	-1.7214723e-21
65	0x81502f76	-3.8237618e-38
66	0x809b41b7	-1.4258076e-38
67	0x00557012	7.84622e-39
68	0x8001bc6a	-1.59426e-40
69	0x807bca27	-1.1368285e-38
70	0x01a5fc00	6.097303e-38
71	0x90621e69	-4.4594068e-29
72	0x0004152f	3.74941e-40
73	0x80a0e273	-1.4774914e-38
74	0x80835f36	-1.2064605e-38
75	0x81b446c2	-6.622309e-38
76	0x0834eb10	5.4443094e-34
77	0x80b1a1fd	-1.6312993e-38
78	0x0039e4c8	5.316695e-39
79	0x8d1562f8	-4.60333e-31
80	0x00c4dc3e	1.8078765e-38
81	0x81a5f47b	-6.096224e-38
82	0xb72de3d1	-1.0364646e-05
83	0xbcf576c7	-0.029963864
84	0x3e2c76db	0.16842215
85	0x3da09957	0.07841747
86	0x3e1ff9db	0.15622656
87	0x3edd0d46	0.4317419
88	0x3dc18618	0.094494045
89	0x3d4f09f0	0.050546587
90	0x3eb85aab	0.36006674
91	0xbf2332e1	-0.6374951
92	0xbdc06337	-0.09393924
93	0x3e0f1837	0.13974081
94	0xbecdf4f2	-0.4022594
95	0x3ec00e18	0.37510753
96	0x3ebd82c3	0.37013826
97	0xbebc25c6	-0.3674757
98	0x3ece8308	0.40334344
99	0xbe3b401f	-0.18286179
100	0x3daa51c9	0.083163805
101	0x3e9a5bec	0.30148256
102	0xbe4235f7	-0.18965898
103	0x3e8857a8	0.26629376
104	0x3ea22230	0.31666708
105	0xbe129d96	-0.14317927
106	0x3ec890c0	0.39172935
107	0x3e6840b5	0.22680934
108	0xbd62e2c4	-0.05539204
109	0xbef34950	-0.4751687
110	0x3e9838e3	0.297309
111	0x3d92863b	0.07154509
112	0x3dff49ae	0.12465225
113	0x3e86bc5e	0.26315588
114	0xbe1c4b17	-0.1526302
115	0x3da139c9	0.0787235
116	0xbf214630	-0.6299772
117	0x3ed89e48	0.4230826
118	0x3ea6969e	0.32536787
119	0x3d82aad9	0.06380243
120	0xbdd412d4	-0.10355154
121	0xbd95403f	-0.072876446
122	0x3ea7a1e4	0.327407
123	0x3e50636b	0.20350425
124	0x397d212e	0.0002414032
125	0x3ea5e137	0.32398388
126	0xbdcfbe54	-0.10143724
127	0x3c71e3aa	0.014763752
128	0xbda9b4f2	-0.08286466
129	0xbd8317ab	-0.06400999
130	0x3e242cc0	0.16032696
131	0x3e9376bd	0.28801528
132	0x3e08f550	0.1337483
133	0x3eb76e3a	0.35826284
134	0x3dde4eac	0.10854849
135	0x3df16534	0.11786881
136	0x3ec2a61c	0.38017356
137	0xbd5de0ec	-0.05416958
138	0xbe612b3a	-0.21989146
139	0x3eb2f464	0.3495208
140	0xbd8e8c43	-0.069603465
141	0x3e570442	0.20997718
142	0x3e03f76b	0.12887351
143	0x3e41e4f0	0.18934989
144	0xbdc44344	-0.095831424
145	0x3dfcbd3c	0.12340781
146	0x3e92cffa	0.286743
147	0x3df1b353	0.118017815
148	0x3e42ac13	0.19010954
149	0x3dc1ff2c	0.09472498
150	0x3f3a748f	0.72834104
151	0xbd393f35	-0.045226295
152	0xbf3eebe7	-0.7457871
153	0xbe992c04	-0.29916394
154	0x3d533c44	0.051571146
155	0xbe2e7bfc	-0.17039484
156	0xbddc2412	-0.10749067
157	0x3b8e650f	0.004345543
158	0xbf317a47	-0.69327205
159	0x3f393323	0.72343653
160	0x3daa70e5	0.08322314
161	0xbed75972	-0.4206043
162	0xbb27bfba	-0.0025596456
163	0x3e9fa8a0	0.31183338
164	0x3d7a4424	0.06110014
165	0x3dcdf724	0.10056904
166	0x3ed7cc41	0.4214802
167	0x3cd7c724	0.026340075
168	0x3d98ac53	0.07454743
169	0xbddd064a	-0.10792215
170	0x3e11e7ad	0.14248534
171	0x3e38548a	0.18000999
172	0x3ce2adfb	0.027670851
173	0x3e002c41	0.12516882
174	0xbd795fdb	-0.06088243
175	0x3ca26507	0.019823564
176	0x3e60058b	0.21877114
177	0x3c960160	0.018311203
178	0x3e208608	0.15676129
179	0x3db590a3	0.08865478
180	0xbe13e713	-0.14443617
181	0xbe1f8095	-0.15576394
182	0xbe8f2fd9	-0.27966192
183	0x3e29c71d	0.16579862
184	0x3e1a5b02	0.15073779
185	0x3d604799	0.05475578
186	0x3d5209ae	0.051278763
187	0x3ea945af	0.33060977
188	0x3e8aa4e6	0.27078933
189	0x3d7b436c	0.061343595
190	0xbf8fe269	-1.124097
191	0xbf38080e	-0.7188729
192	0xbe87e8bd	-0.26544753
193	0xbdb565af	-0.08857285
194	0x3ee68165	0.45020595
195	0xbe2390ec	-0.15973252
196	0x3cb3e2bc	0.021958701
197	0x3f20a6fe	0.6275481
198	0x3ee833d0	0.4535203
199	0x3f04e856	0.51917017
200	0x3e929910	0.28632402
201	0xbeec7a29	-0.4618695
202	0xbed14938	-0.40876174
203	0x3f151137	0.5822939
204	0x3e834f2b	0.25646338
205	0xbf7828fd	-0.96937543
206	0xbe820f78	-0.25402427
207	0xbe366c0d	-0.17814656
208	0x3f6230c1	0.8835564
209	0x3bb51025	0.005525606
210	0x3e079b04	0.13242728
211	0x3e14e72f	0.14541315
212	0xbde6ef4a	-0.112761095
213	0x3ef13a02	0.4711457
214	0x3d3268b3	0.04355688
215	0xbef5204a	-0.47876197
216	0x3d29fb96	0.041499697
217	0xbd1cec14	-0.03831108
218	0x3e047a5d	0.12937303
219	0x3e2c2970	0.16812682
220	0x3e3f06e9	0.1865498
221	0xbd8d2af1	-0.06892956
222	0x3e6d26f8	0.23159397
223	0x3bc3e36d	0.005978039
224	0xbd400a6e	-0.046884947
225	0x3e8eeded	0.27915898
226	0x3e04f0a6	0.12982425
227	0x3dc6d316	0.0970823
228	0x3ccdf932	0.02514324
229	0x3d9f33d1	0.07773555
230	0x3e5d1efc	0.21593851
231	0xbdb5d532	-0.088785544
232	0x3f2d323f	0.67654794
233	0x3efd7a03	0.4950715
234	0x3eaa9215	0.33314577
235	0xbe6d759c	-0.23189396
236	0x3e14412d	0.14477988
237	0x3d2960f1	0.041352216
238	0x3dd42b28	0.10359794
239	0x3e7ed7e1	0.24887039
240	0x3c86c114	0.016449489
241	0x3eab4cfd	0.33457175
242	0xbf56fe43	-0.8398172
243	0x3f0ecb64	0.557791
244	0x3f473e46	0.77829397
245	0xbd14c119	-0.036316965
246	0x3e5722b3	0.2100933
247	0x3f2cdb3d	0.6752203
248	0x3f23c594	0.63973355
249	0x3ee7adee	0.45249885
250	0x3f4374e6	0.7635025
251	0x3bde4880	0.006783545
252	0xbe6f951b	-0.23396723
253	0x3d982bad	0.074302055
254	0x3e2f007a	0.17090026
255	0xbf43e711	-0.76524454

encoder.0.bias f4 [20]
0	0x3d9a39d2	0.075305596
1	0x3e384385	0.17994507
2	0xbcf5e70c	-0.030017398
3	0xa595d474	-2.5991344e-16
4	0x3dd1f935	0.102526106
5	0xbd81781e	-0.06321739
6	0xbdb31dda	-0.08745928
7	0xbe624bc6	-0.22099218
8	0x3e870152	0.26368195
9	0x3e97e65d	0.2966794
10	0xbd9c0223	-0.07617595
11	0x3e3dcc26	0.18534908
12	0x3dcee9e6	0.10103206
13	0xb4627965	-2.1092053e-07
14	0xbdb4e4e6	-0.088327214
15	0xbe260332	-0.16212156
16	0x3dd0d995	0.101977505
17	0xbd82a800	-0.063797
18	0x80c2bcb8	-1.7883786e-38
19	0x3e0ce22b	0.13758151

encoder.2.weight f4 [5, 20]
0	0xbd835a0a	-0.06413658
1	0xbe90b93f	-0.28266332
2	0xbdf74c7f	-0.12075137
3	0xbd3f0808	-0.04663852
4	0xbe381493	-0.17976598
5	0xbe812324	-0.25222123
6	0xbe3e3065	-0.18573149
7	0xbeb61a4f	-0.35566947
8	0xbe972fe2	-0.2952872
9	0x3f165e2f	0.5873746
10	0xbeaad460	-0.33365154
11	0x3eadc90e	0.33942455
12	0x3d99336b	0.0748051
13	0x3d58e03b	0.052948218
14	0xbdd915b2	-0.10599841
15	0xbd8fe6dd	-0.070264556
16	0xbea428b6	-0.3206231
17	0xbe2a9546	-0.16658506
18	0x335dc922	5.16385e-08
19	0xbe94c04c	-0.2905296
20	0xbcad6c12	-0.021169696
21	0xbca8d2e9	-0.020608382
22	0x3e96cbe4	0.2945243
23	0x3d099757	0.033591595
24	0xbba51c13	-0.005038747
25	0x3e87d303	0.26528177
26	0x3e9cc745	0.3062078
27	0x3e717253	0.23578767
28	0x3e0c4b82	0.13700679
29	0x3f306fa3	0.68920344
30	0x3d96807d	0.07348726
31	0x3e5a296c	0.21304864
32	0x3e9d7568	0.30753636
33	0xbd347d30	-0.0440647
34	0x3db7b5a5	0.08970193
35	0x3d85de59	0.0653655
36	0x3e9940b7	0.29932186
37	0x3daf95cc	0.08573493
38	0x2fc42b12	3.5682796e-10
39	0x3da938e7	0.082628064
40	0xbcd2d1d9	-0.025734829
41	0x3ddca9d3	0.10774579
42	0xbe2a5378	-0.16633403
43	0x3c4539aa	0.012037674
44	0xbe2209f7	-0.15824114
45	0x3dfda275	0.12384502
46	0x3e8594ba	0.26090032
47	0xbe47a658	-0.19497049
48	0x3e0de841	0.13858129
49	0xbf1c3127	-0.610125
50	0xbcd97bc6	-0.026548278
51	0xbed68229	-0.4189618
52	0x3e8e06b3	0.27739486
53	0x3cafdc70	0.021467417
54	0x3db05cc8	0.086114466
55	0xbe1690c0	-0.14703655
56	0x3e64e24d	0.22351952
57	0x3ded0a61	0.11574245
58	0x1c102573	4.7694005e-22
59	0x3e25bb07	0.16184627
60	0x3e4469d0	0.1918099
61	0xbbad97dd	-0.0052976445
62	0x3ec221b1	0.3791633
63	0x3cbd91e5	0.023140857
64	0x3ea85525	0.3287746
65	0x3ea4fc95	0.32223955
66	0x3a8d1e2d	0.0010766439
67	0x3c2161b3	0.009849953
68	0xbd75da1a	-0.06002245
69	0xbe0a8327	-0.13526593
70	0x3c81f81a	0.015865374
71	0xbe93c40c	-0.2886051
72	0x3e8479d6	0.25874203
73	0x3bcc28c9	0.006230448
74	0x3d968fc4	0.0735164
75	0x3e2fc46c	0.17164773
76	0xbcdb3fc1	-0.026763799
77	0x3e208eb4	0.15679437
78	0x287635fa	1.36674475e-14
79	0xbdf9b51b	-0.12192746
80	0xbdf3b482	-0.118996635
81	0x3e4822f0	0.19544578
82	0xbd5f0c18	-0.054454893
83	0x3d3131da	0.043260433
84	0x3ea0dda7	0.31419107
85	0xbdaebe4b	-0.08532389
86	0x3ea722b8	0.32643676
87	0xbe148333	-0.14503174
88	0x3eadbb17	0.339318
89	0xbcf53854	-0.029934086
90	0x3d0d4cd2	0.03449709
91	0xbf6a8fd4	-0.91625714
92	0x3e41ece9	0.1893803
93	0xbd167126	-0.036729
94	0x3e9a2198	0.30103755
95	0xbd87b429	-0.0662616
96	0x3d828a28	0.063740075
97	0x3e903d37	0.28171703
98	0xa9840d05	-5.864236e-14
99	0x3e0f35d8	0.13985384

encoder.2.bias f4 [5]
0	0x3db640b8	0.08899063
1	0x3e708fb8	0.23492324
2	0x3e365353	0.17805223
3	0x3e9251c5	0.2857801
4	0xbd825e06	-0.0636559

decoder.0.weight f4 [20, 5]
0	0x3e22e14f	0.15906261
1	0x3d431ea9	0.04763666
2	0xbe4086fa	-0.1880149
3	0x3e815541	0.25260356
4	0x3dce9eae	0.100888595
5	0xbef67e1e	-0.48143095
6	0x3e249e5f	0.16076039
7	0xbe819d59	-0.2531536
8	0x3ee58b40	0.44832802
9	0x3ed188bc	0.40924633
10	0xbe99bea8	-0.30028272
11	0x3e2ee982	0.17081264
12	0x3ed21129	0.41028717
13	0x3ed82ce0	0.42221737
14	0xbe7d5b2b	-0.24741809
15	0xbe8881a0	-0.26661396
16	0x3d67730c	0.0565062
17	0xbe8c7ce7	-0.27439043
18	0xbe980d5d	-0.29697695
19	0xbe3ea713	-0.18618421
20	0x3ce51275	0.027962903
21	0xbe3eaf45	-0.18621548
22	0x3ebd423e	0.369646
23	0xbd20c793	-0.03925283
24	0x3c0cd7a2	0.008596333
25	0x3d21b53c	0.03947948
26	0xbd1c57c9	-0.038169656
27	0xbd29ac62	-0.041424163
28	0xbd222984	-0.039590374
29	0xbd213bcb	-0.039363664
30	0xbf100046	-0.5625042
31	0x3ebe422d	0.37159863
32	0xbded10e2	-0.11575486
33	0xbe913978	-0.28364158
34	0x3ed6cef7	0.41954777
35	0x3d20ca12	0.03925521
36	0xbd20630f	-0.03915697
37	0xbd1f90ad	-0.038956333
38	0xbd1fe921	-0.03904069
39	0xbd20a7fd	-0.039222706
40	0x3dbe121f	0.092808
41	0xbdee63a9	-0.116401024
42	0xbd1706b0	-0.036871612
43	0xbd30cb36	-0.043162547
44	0xbe089e4b	-0.13341634
45	0x3b6eedeb	0.0036457728
46	0x3ef5d3fc	0.48013294
47	0x3cf0becd	0.029387856
48	0x3bfc8b69	0.0077070487
49	0x3ee8016a	0.4531358
50	0x3d1c9e67	0.038237
51	0xbd1cda10	-0.038293898
52	0xbd10e91b	-0.035378557
53	0xbd164bb2	-0.036693282
54	0xbd17de5c	-0.037077293
55	0xbe22335e	-0.15839908
56	0x3ddd3e44	0.10802892
57	0xbee0afad	-0.4388403
58	0xbeb21138	-0.34778762
59	0xbe53dc4a	-0.20689502
60	0x357383a2	9.0716105e-07
61	0xb2c9f1b1	-2.3509388e-08
62	0xab50d52c	-7.419228e-13
63	0xae211c70	-3.663242e-11
64	0x33cd985e	9.573772e-08
65	0x3e82d499	0.25552824
66	0xbdede24d	-0.11615429
67	0x3f0f06ba	0.5586964
68	0x3f0b59f1	0.54434115
69	0x3ebf8aea	0.3741067
70	0xbc8deb82	-0.017324213
71	0x3edfbfad	0.43700925
72	0x3ef04d6b	0.46934065
73	0xbd9522bf	-0.07282018
74	0x3e0ee746	0.13955411
75	0x3cbc912b	0.02301844
76	0xbcc577a3	-0.024104899
77	0xbc4e5070	-0.01259242
78	0xbc757b2b	-0.014982979
79	0xbc6c2104	-0.014412168
80	0x3e1dd7a1	0.15414287
81	0xbe6db75a	-0.23214474
82	0x3eaaf14e	0.33387226
83	0xbe578503	-0.21046834
84	0xbc4c0532	-0.0124524105
85	0xbefd28c6	-0.4944517
86	0xbdf66328	-0.12030631
87	0x3eda37f1	0.42620805
88	0x3e98c162	0.2983504
89	0x3ea9fdda	0.33201486
90	0xbf0f455a	-0.559652
91	0x3ea2ac5a	0.3177212
92	0x3e180858	0.14846933
93	0x3e9e3c83	0.30905542
94	0x3e0a33c8	0.13496315
95	0x3d2c5249	0.04207066
96	0xbd2b761e	-0.041860692
97	0xbd2942a9	-0.041323338
98	0xbd2a7d9f	-0.041623708
99	0xbd2bbb5c	-0.041926727

decoder.0.bias f4 [20]
0	0xbe8e33aa	-0.27773792
1	0x3e065708	0.13119137
2	0xbdad1bed	-0.08452592
3	0xbead1110	-0.3380208
4	0xbe153ff3	-0.14575176
5	0xbc80548e	-0.015665319
6	0xbd915c82	-0.070977226
7	0xbc4cf761	-0.012510152
8	0x3eb04ba7	0.34432718
9	0x3e984cff	0.29746243
10	0x332d6bf8	4.03779e-08
11	0xbe13ed4c	-0.1444599
12	0x80b47447	-1.6572102e-38
13	0xbee6ce6e	-0.45079368
14	0xbe736c48	-0.23771775
15	0xb933b282	-0.0001713727
16	0x3ec6bc68	0.38815618
17	0x3ec6c7ba	0.38824254
18	0x3d859123	0.06521823
19	0xbc0ad815	-0.0084743695

decoder.2.weight f4 [21, 20]
0	0xbeaac49a	-0.3335312
1	0x3e987f24	0.297845
2	0xbd68fe5b	-0.056883197
3	0x3e35cb17	0.17753254
4	0x3e6ea983	0.23306851
5	0x3ca2ac3b	0.019857517
6	0xbd971cc1	-0.07378531
7	0x3cb4c29a	0.02206545
8	0x872220b3	-1.2197135e-34
9	0x3da72416	0.0816118
10	0x3c06d7cf	0.008230164
11	0xbe3cb5aa	-0.18428674
12	0x335f5855	5.200157e-08
13	0x3d93a6db	0.072095595
14	0xbde2d8f8	-0.1107654
15	0xbba22118	-0.0049477927
16	0x368c7deb	4.186984e-06
17	0xbdb05c0d	-0.08611307
18	0xbdfcf341	-0.123510845
19	0xbcbc6d97	-0.023001475
20	0xbe487698	-0.1957649
21	0xbe333597	-0.17500912
22	0x3e83975d	0.2570142
23	0x3e4affab	0.19824092
24	0xbdc4bdbc	-0.096065015
25	0x3c99410a	0.01870777
26	0xbd735637	-0.059408393
27	0xbc2b863f	-0.0104690185
28	0xb3de9159	-1.0364119e-07
29	0x3dc82a68	0.09773713
30	0x3be1137f	0.006868779
31	0x3d1c4510	0.0381518
32	0x014a4940	3.7154095e-38
33	0xbdbbafa4	-0.0916436
34	0xbdf5c816	-0.12001054
35	0x3ca40965	0.02002401
36	0xbc63dd13	-0.013907689
37	0x3e27e28f	0.16395019
38	0xbceefa8a	-0.0291722
39	0xbc9d2091	-0.019180568
40	0xbe07d517	-0.13264881
41	0x3d4d1425	0.05006804
42	0x3d93b5dd	0.07212422
43	0x3c1a0480	0.009400487
44	0x3cd62021	0.026138367
45	0xbc85c2f2	-0.016328309
46	0xbe454adb	-0.19266836
47	0xbc81e081	-0.015854122
48	0x811d21e4	-2.886066e-38
49	0x3cdc3e31	0.026885124
50	0xbd0d7624	-0.034536496
51	0xbda718b4	-0.081590086
52	0x323858c2	1.0730391e-08
53	0x3d427b7b	0.04748104
54	0xbe205ba1	-0.15659954
55	0xbb583d53	-0.0032995536
56	0xbb06d4e6	-0.0020573675
57	0xbd178331	-0.03699035
58	0x3e20fcb9	0.15721406
59	0x3cc15b9b	0.023603251
60	0x3d36e9db	0.044656616
61	0x3e00bf30	0.12572932
62	0xbde99540	-0.1140542
63	0x3dad5fce	0.08465539
64	0x3d5b7e85	0.053587455
65	0x3c9528f5	0.018208006
66	0x3e129db9	0.14317979
67	0x39246265	0.00015676914
68	0x2cef3fe7	6.799883e-12
69	0xbe637d0b	-0.22215669
70	0xbc2c4dc2	-0.010516586
71	0xbddcaf07	-0.10775571
72	0x3117ccb5	2.2089754e-09
73	0x3cb28d0e	0.021795776
74	0xbe496690	-0.1966803
75	0x3c84700d	0.016166711
76	0xbcb3a18d	-0.02192762
77	0xbdeae2d3	-0.114690445
78	0x3e2c2941	0.16812612
79	0xbcdc614b	-0.026901862
80	0xbdc4096a	-0.09572108
81	0xbe0743a1	-0.13209392
82	0xbe0ef190	-0.13959336
83	0x3b80446e	0.0039144075
84	0xbdc08de8	-0.094020665
85	0xbb696cef	-0.0035617908
86	0x3e25559c	0.16145939
87	0xbc9c06b5	-0.019046167
88	0x30950c8c	1.0844743e-09
89	0xbc6a0d49	-0.014285394
90	0xbd179f9b	-0.037017446
91	0xbd95c902	-0.0731373
92	0x819ece9a	-5.833649e-38
93	0xbc3d4088	-0.01155103
94	0xbde6ff1e	-0.112791285
95	0xbcd4051d	-0.025881344
96	0x3b67fb8a	0.0035397732
97	0x3d41628e	0.04721313
98	0x3dd35ea3	0.10320785
99	0xbd19e546	-0.037572168
100	0x3e9ca2a9	0.3059285
101	0x3c62687b	0.013818855
102	0x3e4d00a1	0.20019771
103	0xbe18b049	-0.14910997
104	0x3e5102ce	0.20411226
105	0x3d1f695f	0.03891885
106	0xbde7128a	-0.11282833
107	0x3cc74303	0.024323946
108	0xb2b92d77	-2.155751e-08
109	0x3e23485d	0.15945573
110	0xbd343cbe	-0.04400324
111	0xbe312ebb	-0.17302983
112	0x01178c4a	2.7834972e-38
113	0xbaf1cb36	-0.0018447402
114	0x3e186d94	0.1488555
115	0x3c557324	0.01302794
116	0xbd06ae1c	-0.032880887
117	0xbcf10933	-0.029423332
118	0xbe4a5fd4	-0.19763118
119	0x3d0c131f	0.034197923
120	0xbe44f48f	-0.19233917
121	0x3e2b297d	0.16715045
122	0xbd682c9d	-0.05668317
123	0xbe1eff6e	-0.15527126
124	0xbd505740	-0.050864458
125	0x3cda1e67	0.026625825
126	0xbe386b2e	-0.18009636
127	0x3b2dff71	0.002654996
128	0xaeaae995	-7.7721975e-11
129	0xb9cf477a	-0.0003953537
130	0x3d34a1a4	0.044099465
131	0xbd8404c0	-0.064462185
132	0xae83baf1	-5.990398e-11
133	0x3ddc5ffb	0.10760494
134	0xbcc1e127	-0.023666931
135	0x3d0a7e50	0.033811867
136	0xbb00990e	-0.0019622478
137	0xbe0aca8c	-0.13553828
138	0x3df1a98c	0.117999166
139	0xbc226b71	-0.009913311
140	0x3d6ca328	0.057772785
141	0xbe8184f5	-0.2529675
142	0x3d9871e7	0.074436
143	0xbe778f3d	-0.24175735
144	0xbe1bb359	-0.15205134
145	0xbcc14ffb	-0.023597708
146	0x3d554c81	0.052074913
147	0xbbc35315	-0.005960832
148	0xb1b4b78d	-5.259557e-09
149	0x3d01fc30	0.031734645
150	0xbb72bf99	-0.003704047
151	0x3e3372ac	0.17524213
152	0x81a987da	-6.2275733e-38
153	0xbc9f7052	-0.019462738
154	0x3dce4efc	0.10073659
155	0x3c3f13fd	0.01166248
156	0xbc43f7ff	-0.011960982
157	0x3d79cf4b	0.060988706
158	0x3ce2d2d0	0.027688414
159	0xbc0bb624	-0.008527312
160	0x3da73d0d	0.081659414
161	0x3d01a6c0	0.031653166
162	0x3e0cf782	0.13766292
163	0x392be962	0.00016394773
164	0x3dff7211	0.12472928
165	0x3d1917da	0.037376262
166	0x3e1c60a9	0.15271248
167	0xbc91d8eb	-0.01780363
168	0x3a3b811a	0.00071527215
169	0x3c6082ab	0.013703029
170	0xbc94884a	-0.018131394
171	0x3e00d9d2	0.12583092
172	0xb7ff4742	-3.043155e-05
173	0x3dd91748	0.10600144
174	0x3d889fdb	0.06671115
175	0xbd35fe36	-0.044431888
176	0xbd3500bf	-0.044190165
177	0xbe5a3a9c	-0.2131142
178	0xbe14afa4	-0.14520127
179	0xbcb0e43e	-0.02159321
180	0xbee3b34e	-0.44472736
181	0x3de8444e	0.11341153
182	0xbb271289	-0.0025493226
183	0xbe1a1894	-0.15048438
184	0x3e05b64f	0.13057826
185	0xbc02a86b	-0.007974724
186	0x3dcb8457	0.09937351
187	0xbc95ef69	-0.018302636
188	0x80cf9bc2	-1.9065823e-38
189	0x3dba2abf	0.090901844
190	0x3cc8c220	0.024506629
191	0xbdd3c19d	-0.10339663
192	0x0134205b	3.3083993e-38
193	0x3d946165	0.07245139
194	0xbd08a8a8	-0.033363968
195	0x3cc7fbb2	0.02441201
196	0x3787865c	1.615582e-05
197	0xbe512190	-0.2042296
198	0xbd96d015	-0.07363907
199	0xbd141bfe	-0.036159508
200	0xbec8e03f	-0.39233586
201	0xbe39f9f7	-0.1816176
202	0xbdf9539c	-0.1217415
203	0xbe325dda	-0.17418614
204	0xbd9a2178	-0.07525915
205	0xbcc111c0	-0.023568034
206	0x3d98d9fa	0.07463451
207	0x3bf4ccb9	0.007470694
208	0xa45392ec	-4.587778e-17
209	0x3ddfb335	0.10922853
210	0x3b158619	0.0022815524
211	0xbdb194de	-0.08670972
212	0x81504894	-3.825564e-38
213	0x3da30423	0.079597734
214	0x3d88208a	0.06646831
215	0xbbe9c3d1	-0.007133939
216	0xbad8e6ae	-0.001654824
217	0xbe3e20a0	-0.18567133
218	0x3e4ebf39	0.20190133
219	0xbc1a7d44	-0.00942928
220	0xbe27e048	-0.1639415
221	0x3d8bbb83	0.068228744
222	0xbe22bed1	-0.15893103
223	0xbe0201ff	-0.12696074
224	0x3e400329	0.18751206
225	0xbbfb9208	-0.0076773204
226	0xbde24aad	-0.110493995
227	0xbb9fefe0	-0.0048808903
228	0x27db19ba	6.0812603e-15
229	0x3e635c2d	0.22203131
230	0x3c710011	0.0147094885
231	0x3da99a9e	0.08281444
232	0x00941e0b	1.3602431e-38
233	0xbce74b66	-0.028234195
234	0xbdfd2a61	-0.12361599
235	0x3b4d43c9	0.003132092
236	0xbc9767b4	-0.018482067
237	0x3e4a5c5b	0.19761793
238	0xbde4665c	-0.11152336
239	0x3d385aad	0.04500835
240	0x3df7d350	0.121008515
241	0x3d072d0a	0.033001937
242	0x3dda4718	0.10658091
243	0x3d03d4ff	0.03218555
244	0x3dc4874c	0.09596118
245	0xbbd25a1f	-0.0064194347
246	0xbd4ad8b6	-0.049523078
247	0xbba3be1b	-0.0049970276
248	0xaafa1501	-4.4423495e-13
249	0xbcce6d77	-0.025198681
250	0xbb426110	-0.0029659905
251	0x3c22f1d9	0.009945356
252	0x008b03ef	1.2766545e-38
253	0xbd2965ed	-0.04135697
254	0xbe35698a	-0.17716041
255	0x3a614b63	0.00085943023

decoder.2.bias f4 [21]
0	0xbc637731	-0.013883398
1	0x3eae68a3	0.34064206
2	0x3e8d640f	0.276154
3	0x396841c8	0.0002214975
4	0x3db94284	0.0904589
5	0x3dd50fa8	0.10403377
6	0x3e1b6139	0.15173806
7	0x3d94e429	0.072700806
8	0x3ded0083	0.11572363
9	0xbea2a0cd	-0.31763306
10	0xbeb21deb	-0.3478845
11	0x3e289443	0.16462807
12	0xbdc54b6c	-0.09633526
13	0x3e15d05c	0.14630264
14	0xbe66abd4	-0.22526485
15	0xbe49b8aa	-0.1969935
16	0x3e91f611	0.28508046
17	0xbd207a4a	-0.039179124
18	0x3cec077c	0.028812163
19	0x3f972a14	1.1809716
20	0xbda19874	-0.07890406
